{
  "storage" : "model.espresso.weights",
  "properties" : {

  },
  "format_version" : 200,
  "layers" : [
    {
      "pad_r" : 0,
      "fused_relu" : 1,
      "fused_tanh" : 0,
      "pad_fill_mode" : 0,
      "pad_b" : 0,
      "pad_l" : 0,
      "top" : "conv:0",
      "blob_weights" : 3,
      "K" : 3,
      "blob_biases" : 1,
      "stride_x" : 2,
      "name" : "conv\/Conv2D:0",
      "has_batch_norm" : 0,
      "type" : "convolution",
      "n_groups" : 1,
      "pad_t" : 0,
      "stride_y" : 2,
      "has_biases" : 1,
      "C" : 32,
      "bottom" : "Mul__0",
      "weights" : {

      },
      "Nx" : 3,
      "pad_mode" : 0,
      "pad_value" : 0,
      "Ny" : 3,
      "n_parallel" : 1
    },
    {
      "pad_r" : 0,
      "fused_relu" : 1,
      "fused_tanh" : 0,
      "pad_fill_mode" : 0,
      "pad_b" : 0,
      "pad_l" : 0,
      "top" : "conv_1:0",
      "blob_weights" : 7,
      "K" : 32,
      "blob_biases" : 5,
      "name" : "conv_1\/Conv2D:0",
      "has_batch_norm" : 0,
      "type" : "convolution",
      "n_groups" : 1,
      "pad_t" : 0,
      "has_biases" : 1,
      "C" : 32,
      "bottom" : "conv:0",
      "weights" : {

      },
      "pad_mode" : 0,
      "Nx" : 3,
      "pad_value" : 0,
      "Ny" : 3,
      "n_parallel" : 1
    },
    {
      "pad_r" : 0,
      "fused_relu" : 1,
      "fused_tanh" : 0,
      "pad_fill_mode" : 0,
      "pad_b" : 0,
      "pad_l" : 0,
      "top" : "conv_2:0",
      "blob_weights" : 11,
      "K" : 32,
      "blob_biases" : 9,
      "name" : "conv_2\/Conv2D:0",
      "has_batch_norm" : 0,
      "type" : "convolution",
      "n_groups" : 1,
      "pad_t" : 0,
      "has_biases" : 1,
      "C" : 64,
      "bottom" : "conv_1:0",
      "weights" : {

      },
      "pad_mode" : 1,
      "Nx" : 3,
      "pad_value" : 0,
      "Ny" : 3,
      "n_parallel" : 1
    },
    {
      "pad_value" : 0,
      "average_count_exclude_padding" : 1,
      "top_shape_style" : 0,
      "avg_or_max" : 1,
      "stride_x" : 2,
      "pad_mode" : 2,
      "stride_y" : 2,
      "pad_t" : 0,
      "weights" : {

      },
      "size_y" : 3,
      "type" : "pool",
      "pad_r" : 0,
      "pad_b" : 0,
      "size_x" : 3,
      "pad_fill_mode" : 0,
      "bottom" : "conv_2:0",
      "pad_l" : 0,
      "name" : "pool:0",
      "top" : "pool:0"
    },
    {
      "pad_r" : 0,
      "fused_relu" : 1,
      "fused_tanh" : 0,
      "pad_fill_mode" : 0,
      "pad_b" : 0,
      "pad_l" : 0,
      "top" : "conv_3:0",
      "blob_weights" : 15,
      "K" : 64,
      "blob_biases" : 13,
      "name" : "conv_3\/Conv2D:0",
      "has_batch_norm" : 0,
      "type" : "convolution",
      "n_groups" : 1,
      "pad_t" : 0,
      "has_biases" : 1,
      "C" : 80,
      "bottom" : "pool:0",
      "weights" : {

      },
      "pad_mode" : 0,
      "Nx" : 1,
      "pad_value" : 0,
      "Ny" : 1,
      "n_parallel" : 1
    },
    {
      "pad_r" : 0,
      "fused_relu" : 1,
      "fused_tanh" : 0,
      "pad_fill_mode" : 0,
      "pad_b" : 0,
      "pad_l" : 0,
      "top" : "conv_4:0",
      "blob_weights" : 19,
      "K" : 80,
      "blob_biases" : 17,
      "name" : "conv_4\/Conv2D:0",
      "has_batch_norm" : 0,
      "type" : "convolution",
      "n_groups" : 1,
      "pad_t" : 0,
      "has_biases" : 1,
      "C" : 192,
      "bottom" : "conv_3:0",
      "weights" : {

      },
      "pad_mode" : 0,
      "Nx" : 3,
      "pad_value" : 0,
      "Ny" : 3,
      "n_parallel" : 1
    },
    {
      "pad_value" : 0,
      "average_count_exclude_padding" : 1,
      "top_shape_style" : 0,
      "avg_or_max" : 1,
      "stride_x" : 2,
      "pad_mode" : 2,
      "stride_y" : 2,
      "pad_t" : 0,
      "weights" : {

      },
      "size_y" : 3,
      "type" : "pool",
      "pad_r" : 0,
      "pad_b" : 0,
      "size_x" : 3,
      "pad_fill_mode" : 0,
      "bottom" : "conv_4:0",
      "pad_l" : 0,
      "name" : "pool_1:0",
      "top" : "pool_1:0"
    },
    {
      "pad_value" : 0,
      "average_count_exclude_padding" : 1,
      "top_shape_style" : 0,
      "avg_or_max" : 0,
      "stride_x" : 1,
      "pad_mode" : 1,
      "stride_y" : 1,
      "pad_t" : 0,
      "weights" : {

      },
      "size_y" : 3,
      "type" : "pool",
      "pad_r" : 0,
      "pad_b" : 0,
      "size_x" : 3,
      "pad_fill_mode" : 0,
      "bottom" : "pool_1:0",
      "pad_l" : 0,
      "name" : "mixed\/tower_2\/pool:0",
      "top" : "mixed\/tower_2\/pool:0"
    },
    {
      "pad_r" : 0,
      "fused_relu" : 1,
      "fused_tanh" : 0,
      "pad_fill_mode" : 0,
      "pad_b" : 0,
      "pad_l" : 0,
      "top" : "mixed\/tower_2\/conv:0",
      "blob_weights" : 23,
      "K" : 192,
      "blob_biases" : 21,
      "name" : "mixed\/tower_2\/conv\/Conv2D:0",
      "has_batch_norm" : 0,
      "type" : "convolution",
      "n_groups" : 1,
      "pad_t" : 0,
      "has_biases" : 1,
      "C" : 32,
      "bottom" : "mixed\/tower_2\/pool:0",
      "weights" : {

      },
      "pad_mode" : 1,
      "Nx" : 1,
      "pad_value" : 0,
      "Ny" : 1,
      "n_parallel" : 1
    },
    {
      "pad_r" : 0,
      "fused_relu" : 1,
      "fused_tanh" : 0,
      "pad_fill_mode" : 0,
      "pad_b" : 0,
      "pad_l" : 0,
      "top" : "mixed\/tower_1\/conv:0",
      "blob_weights" : 27,
      "K" : 192,
      "blob_biases" : 25,
      "name" : "mixed\/tower_1\/conv\/Conv2D:0",
      "has_batch_norm" : 0,
      "type" : "convolution",
      "n_groups" : 1,
      "pad_t" : 0,
      "has_biases" : 1,
      "C" : 64,
      "bottom" : "pool_1:0",
      "weights" : {

      },
      "pad_mode" : 1,
      "Nx" : 1,
      "pad_value" : 0,
      "Ny" : 1,
      "n_parallel" : 1
    },
    {
      "pad_r" : 0,
      "fused_relu" : 1,
      "fused_tanh" : 0,
      "pad_fill_mode" : 0,
      "pad_b" : 0,
      "pad_l" : 0,
      "top" : "mixed\/tower_1\/conv_1:0",
      "blob_weights" : 31,
      "K" : 64,
      "blob_biases" : 29,
      "name" : "mixed\/tower_1\/conv_1\/Conv2D:0",
      "has_batch_norm" : 0,
      "type" : "convolution",
      "n_groups" : 1,
      "pad_t" : 0,
      "has_biases" : 1,
      "C" : 96,
      "bottom" : "mixed\/tower_1\/conv:0",
      "weights" : {

      },
      "pad_mode" : 1,
      "Nx" : 3,
      "pad_value" : 0,
      "Ny" : 3,
      "n_parallel" : 1
    },
    {
      "pad_r" : 0,
      "fused_relu" : 1,
      "fused_tanh" : 0,
      "pad_fill_mode" : 0,
      "pad_b" : 0,
      "pad_l" : 0,
      "top" : "mixed\/tower_1\/conv_2:0",
      "blob_weights" : 35,
      "K" : 96,
      "blob_biases" : 33,
      "name" : "mixed\/tower_1\/conv_2\/Conv2D:0",
      "has_batch_norm" : 0,
      "type" : "convolution",
      "n_groups" : 1,
      "pad_t" : 0,
      "has_biases" : 1,
      "C" : 96,
      "bottom" : "mixed\/tower_1\/conv_1:0",
      "weights" : {

      },
      "pad_mode" : 1,
      "Nx" : 3,
      "pad_value" : 0,
      "Ny" : 3,
      "n_parallel" : 1
    },
    {
      "pad_r" : 0,
      "fused_relu" : 1,
      "fused_tanh" : 0,
      "pad_fill_mode" : 0,
      "pad_b" : 0,
      "pad_l" : 0,
      "top" : "mixed\/tower\/conv:0",
      "blob_weights" : 39,
      "K" : 192,
      "blob_biases" : 37,
      "name" : "mixed\/tower\/conv\/Conv2D:0",
      "has_batch_norm" : 0,
      "type" : "convolution",
      "n_groups" : 1,
      "pad_t" : 0,
      "has_biases" : 1,
      "C" : 48,
      "bottom" : "pool_1:0",
      "weights" : {

      },
      "pad_mode" : 1,
      "Nx" : 1,
      "pad_value" : 0,
      "Ny" : 1,
      "n_parallel" : 1
    },
    {
      "pad_r" : 0,
      "fused_relu" : 1,
      "fused_tanh" : 0,
      "pad_fill_mode" : 0,
      "pad_b" : 0,
      "pad_l" : 0,
      "top" : "mixed\/tower\/conv_1:0",
      "blob_weights" : 43,
      "K" : 48,
      "blob_biases" : 41,
      "name" : "mixed\/tower\/conv_1\/Conv2D:0",
      "has_batch_norm" : 0,
      "type" : "convolution",
      "n_groups" : 1,
      "pad_t" : 0,
      "has_biases" : 1,
      "C" : 64,
      "bottom" : "mixed\/tower\/conv:0",
      "weights" : {

      },
      "pad_mode" : 1,
      "Nx" : 5,
      "pad_value" : 0,
      "Ny" : 5,
      "n_parallel" : 1
    },
    {
      "pad_r" : 0,
      "fused_relu" : 1,
      "fused_tanh" : 0,
      "pad_fill_mode" : 0,
      "pad_b" : 0,
      "pad_l" : 0,
      "top" : "mixed\/conv:0",
      "blob_weights" : 47,
      "K" : 192,
      "blob_biases" : 45,
      "name" : "mixed\/conv\/Conv2D:0",
      "has_batch_norm" : 0,
      "type" : "convolution",
      "n_groups" : 1,
      "pad_t" : 0,
      "has_biases" : 1,
      "C" : 64,
      "bottom" : "pool_1:0",
      "weights" : {

      },
      "pad_mode" : 1,
      "Nx" : 1,
      "pad_value" : 0,
      "Ny" : 1,
      "n_parallel" : 1
    },
    {
      "weights" : {

      },
      "top" : "mixed\/join:0",
      "type" : "concat",
      "name" : "mixed\/join:0",
      "bottom" : "mixed\/conv:0,mixed\/tower\/conv_1:0,mixed\/tower_1\/conv_2:0,mixed\/tower_2\/conv:0"
    },
    {
      "pad_value" : 0,
      "average_count_exclude_padding" : 1,
      "top_shape_style" : 0,
      "avg_or_max" : 0,
      "stride_x" : 1,
      "pad_mode" : 1,
      "stride_y" : 1,
      "pad_t" : 0,
      "weights" : {

      },
      "size_y" : 3,
      "type" : "pool",
      "pad_r" : 0,
      "pad_b" : 0,
      "size_x" : 3,
      "pad_fill_mode" : 0,
      "bottom" : "mixed\/join:0",
      "pad_l" : 0,
      "name" : "mixed_1\/tower_2\/pool:0",
      "top" : "mixed_1\/tower_2\/pool:0"
    },
    {
      "pad_r" : 0,
      "fused_relu" : 1,
      "fused_tanh" : 0,
      "pad_fill_mode" : 0,
      "pad_b" : 0,
      "pad_l" : 0,
      "top" : "mixed_1\/tower_2\/conv:0",
      "blob_weights" : 51,
      "K" : 256,
      "blob_biases" : 49,
      "name" : "mixed_1\/tower_2\/conv\/Conv2D:0",
      "has_batch_norm" : 0,
      "type" : "convolution",
      "n_groups" : 1,
      "pad_t" : 0,
      "has_biases" : 1,
      "C" : 64,
      "bottom" : "mixed_1\/tower_2\/pool:0",
      "weights" : {

      },
      "pad_mode" : 1,
      "Nx" : 1,
      "pad_value" : 0,
      "Ny" : 1,
      "n_parallel" : 1
    },
    {
      "pad_r" : 0,
      "fused_relu" : 1,
      "fused_tanh" : 0,
      "pad_fill_mode" : 0,
      "pad_b" : 0,
      "pad_l" : 0,
      "top" : "mixed_1\/tower_1\/conv:0",
      "blob_weights" : 55,
      "K" : 256,
      "blob_biases" : 53,
      "name" : "mixed_1\/tower_1\/conv\/Conv2D:0",
      "has_batch_norm" : 0,
      "type" : "convolution",
      "n_groups" : 1,
      "pad_t" : 0,
      "has_biases" : 1,
      "C" : 64,
      "bottom" : "mixed\/join:0",
      "weights" : {

      },
      "pad_mode" : 1,
      "Nx" : 1,
      "pad_value" : 0,
      "Ny" : 1,
      "n_parallel" : 1
    },
    {
      "pad_r" : 0,
      "fused_relu" : 1,
      "fused_tanh" : 0,
      "pad_fill_mode" : 0,
      "pad_b" : 0,
      "pad_l" : 0,
      "top" : "mixed_1\/tower_1\/conv_1:0",
      "blob_weights" : 59,
      "K" : 64,
      "blob_biases" : 57,
      "name" : "mixed_1\/tower_1\/conv_1\/Conv2D:0",
      "has_batch_norm" : 0,
      "type" : "convolution",
      "n_groups" : 1,
      "pad_t" : 0,
      "has_biases" : 1,
      "C" : 96,
      "bottom" : "mixed_1\/tower_1\/conv:0",
      "weights" : {

      },
      "pad_mode" : 1,
      "Nx" : 3,
      "pad_value" : 0,
      "Ny" : 3,
      "n_parallel" : 1
    },
    {
      "pad_r" : 0,
      "fused_relu" : 1,
      "fused_tanh" : 0,
      "pad_fill_mode" : 0,
      "pad_b" : 0,
      "pad_l" : 0,
      "top" : "mixed_1\/tower_1\/conv_2:0",
      "blob_weights" : 63,
      "K" : 96,
      "blob_biases" : 61,
      "name" : "mixed_1\/tower_1\/conv_2\/Conv2D:0",
      "has_batch_norm" : 0,
      "type" : "convolution",
      "n_groups" : 1,
      "pad_t" : 0,
      "has_biases" : 1,
      "C" : 96,
      "bottom" : "mixed_1\/tower_1\/conv_1:0",
      "weights" : {

      },
      "pad_mode" : 1,
      "Nx" : 3,
      "pad_value" : 0,
      "Ny" : 3,
      "n_parallel" : 1
    },
    {
      "pad_r" : 0,
      "fused_relu" : 1,
      "fused_tanh" : 0,
      "pad_fill_mode" : 0,
      "pad_b" : 0,
      "pad_l" : 0,
      "top" : "mixed_1\/tower\/conv:0",
      "blob_weights" : 67,
      "K" : 256,
      "blob_biases" : 65,
      "name" : "mixed_1\/tower\/conv\/Conv2D:0",
      "has_batch_norm" : 0,
      "type" : "convolution",
      "n_groups" : 1,
      "pad_t" : 0,
      "has_biases" : 1,
      "C" : 48,
      "bottom" : "mixed\/join:0",
      "weights" : {

      },
      "pad_mode" : 1,
      "Nx" : 1,
      "pad_value" : 0,
      "Ny" : 1,
      "n_parallel" : 1
    },
    {
      "pad_r" : 0,
      "fused_relu" : 1,
      "fused_tanh" : 0,
      "pad_fill_mode" : 0,
      "pad_b" : 0,
      "pad_l" : 0,
      "top" : "mixed_1\/tower\/conv_1:0",
      "blob_weights" : 71,
      "K" : 48,
      "blob_biases" : 69,
      "name" : "mixed_1\/tower\/conv_1\/Conv2D:0",
      "has_batch_norm" : 0,
      "type" : "convolution",
      "n_groups" : 1,
      "pad_t" : 0,
      "has_biases" : 1,
      "C" : 64,
      "bottom" : "mixed_1\/tower\/conv:0",
      "weights" : {

      },
      "pad_mode" : 1,
      "Nx" : 5,
      "pad_value" : 0,
      "Ny" : 5,
      "n_parallel" : 1
    },
    {
      "pad_r" : 0,
      "fused_relu" : 1,
      "fused_tanh" : 0,
      "pad_fill_mode" : 0,
      "pad_b" : 0,
      "pad_l" : 0,
      "top" : "mixed_1\/conv:0",
      "blob_weights" : 75,
      "K" : 256,
      "blob_biases" : 73,
      "name" : "mixed_1\/conv\/Conv2D:0",
      "has_batch_norm" : 0,
      "type" : "convolution",
      "n_groups" : 1,
      "pad_t" : 0,
      "has_biases" : 1,
      "C" : 64,
      "bottom" : "mixed\/join:0",
      "weights" : {

      },
      "pad_mode" : 1,
      "Nx" : 1,
      "pad_value" : 0,
      "Ny" : 1,
      "n_parallel" : 1
    },
    {
      "weights" : {

      },
      "top" : "mixed_1\/join:0",
      "type" : "concat",
      "name" : "mixed_1\/join:0",
      "bottom" : "mixed_1\/conv:0,mixed_1\/tower\/conv_1:0,mixed_1\/tower_1\/conv_2:0,mixed_1\/tower_2\/conv:0"
    },
    {
      "pad_value" : 0,
      "average_count_exclude_padding" : 1,
      "top_shape_style" : 0,
      "avg_or_max" : 0,
      "stride_x" : 1,
      "pad_mode" : 1,
      "stride_y" : 1,
      "pad_t" : 0,
      "weights" : {

      },
      "size_y" : 3,
      "type" : "pool",
      "pad_r" : 0,
      "pad_b" : 0,
      "size_x" : 3,
      "pad_fill_mode" : 0,
      "bottom" : "mixed_1\/join:0",
      "pad_l" : 0,
      "name" : "mixed_2\/tower_2\/pool:0",
      "top" : "mixed_2\/tower_2\/pool:0"
    },
    {
      "pad_r" : 0,
      "fused_relu" : 1,
      "fused_tanh" : 0,
      "pad_fill_mode" : 0,
      "pad_b" : 0,
      "pad_l" : 0,
      "top" : "mixed_2\/tower_2\/conv:0",
      "blob_weights" : 79,
      "K" : 288,
      "blob_biases" : 77,
      "name" : "mixed_2\/tower_2\/conv\/Conv2D:0",
      "has_batch_norm" : 0,
      "type" : "convolution",
      "n_groups" : 1,
      "pad_t" : 0,
      "has_biases" : 1,
      "C" : 64,
      "bottom" : "mixed_2\/tower_2\/pool:0",
      "weights" : {

      },
      "pad_mode" : 1,
      "Nx" : 1,
      "pad_value" : 0,
      "Ny" : 1,
      "n_parallel" : 1
    },
    {
      "pad_r" : 0,
      "fused_relu" : 1,
      "fused_tanh" : 0,
      "pad_fill_mode" : 0,
      "pad_b" : 0,
      "pad_l" : 0,
      "top" : "mixed_2\/tower_1\/conv:0",
      "blob_weights" : 83,
      "K" : 288,
      "blob_biases" : 81,
      "name" : "mixed_2\/tower_1\/conv\/Conv2D:0",
      "has_batch_norm" : 0,
      "type" : "convolution",
      "n_groups" : 1,
      "pad_t" : 0,
      "has_biases" : 1,
      "C" : 64,
      "bottom" : "mixed_1\/join:0",
      "weights" : {

      },
      "pad_mode" : 1,
      "Nx" : 1,
      "pad_value" : 0,
      "Ny" : 1,
      "n_parallel" : 1
    },
    {
      "pad_r" : 0,
      "fused_relu" : 1,
      "fused_tanh" : 0,
      "pad_fill_mode" : 0,
      "pad_b" : 0,
      "pad_l" : 0,
      "top" : "mixed_2\/tower_1\/conv_1:0",
      "blob_weights" : 87,
      "K" : 64,
      "blob_biases" : 85,
      "name" : "mixed_2\/tower_1\/conv_1\/Conv2D:0",
      "has_batch_norm" : 0,
      "type" : "convolution",
      "n_groups" : 1,
      "pad_t" : 0,
      "has_biases" : 1,
      "C" : 96,
      "bottom" : "mixed_2\/tower_1\/conv:0",
      "weights" : {

      },
      "pad_mode" : 1,
      "Nx" : 3,
      "pad_value" : 0,
      "Ny" : 3,
      "n_parallel" : 1
    },
    {
      "pad_r" : 0,
      "fused_relu" : 1,
      "fused_tanh" : 0,
      "pad_fill_mode" : 0,
      "pad_b" : 0,
      "pad_l" : 0,
      "top" : "mixed_2\/tower_1\/conv_2:0",
      "blob_weights" : 91,
      "K" : 96,
      "blob_biases" : 89,
      "name" : "mixed_2\/tower_1\/conv_2\/Conv2D:0",
      "has_batch_norm" : 0,
      "type" : "convolution",
      "n_groups" : 1,
      "pad_t" : 0,
      "has_biases" : 1,
      "C" : 96,
      "bottom" : "mixed_2\/tower_1\/conv_1:0",
      "weights" : {

      },
      "pad_mode" : 1,
      "Nx" : 3,
      "pad_value" : 0,
      "Ny" : 3,
      "n_parallel" : 1
    },
    {
      "pad_r" : 0,
      "fused_relu" : 1,
      "fused_tanh" : 0,
      "pad_fill_mode" : 0,
      "pad_b" : 0,
      "pad_l" : 0,
      "top" : "mixed_2\/tower\/conv:0",
      "blob_weights" : 95,
      "K" : 288,
      "blob_biases" : 93,
      "name" : "mixed_2\/tower\/conv\/Conv2D:0",
      "has_batch_norm" : 0,
      "type" : "convolution",
      "n_groups" : 1,
      "pad_t" : 0,
      "has_biases" : 1,
      "C" : 48,
      "bottom" : "mixed_1\/join:0",
      "weights" : {

      },
      "pad_mode" : 1,
      "Nx" : 1,
      "pad_value" : 0,
      "Ny" : 1,
      "n_parallel" : 1
    },
    {
      "pad_r" : 0,
      "fused_relu" : 1,
      "fused_tanh" : 0,
      "pad_fill_mode" : 0,
      "pad_b" : 0,
      "pad_l" : 0,
      "top" : "mixed_2\/tower\/conv_1:0",
      "blob_weights" : 99,
      "K" : 48,
      "blob_biases" : 97,
      "name" : "mixed_2\/tower\/conv_1\/Conv2D:0",
      "has_batch_norm" : 0,
      "type" : "convolution",
      "n_groups" : 1,
      "pad_t" : 0,
      "has_biases" : 1,
      "C" : 64,
      "bottom" : "mixed_2\/tower\/conv:0",
      "weights" : {

      },
      "pad_mode" : 1,
      "Nx" : 5,
      "pad_value" : 0,
      "Ny" : 5,
      "n_parallel" : 1
    },
    {
      "pad_r" : 0,
      "fused_relu" : 1,
      "fused_tanh" : 0,
      "pad_fill_mode" : 0,
      "pad_b" : 0,
      "pad_l" : 0,
      "top" : "mixed_2\/conv:0",
      "blob_weights" : 103,
      "K" : 288,
      "blob_biases" : 101,
      "name" : "mixed_2\/conv\/Conv2D:0",
      "has_batch_norm" : 0,
      "type" : "convolution",
      "n_groups" : 1,
      "pad_t" : 0,
      "has_biases" : 1,
      "C" : 64,
      "bottom" : "mixed_1\/join:0",
      "weights" : {

      },
      "pad_mode" : 1,
      "Nx" : 1,
      "pad_value" : 0,
      "Ny" : 1,
      "n_parallel" : 1
    },
    {
      "weights" : {

      },
      "top" : "mixed_2\/join:0",
      "type" : "concat",
      "name" : "mixed_2\/join:0",
      "bottom" : "mixed_2\/conv:0,mixed_2\/tower\/conv_1:0,mixed_2\/tower_1\/conv_2:0,mixed_2\/tower_2\/conv:0"
    },
    {
      "pad_value" : 0,
      "average_count_exclude_padding" : 1,
      "top_shape_style" : 0,
      "avg_or_max" : 1,
      "stride_x" : 2,
      "pad_mode" : 2,
      "stride_y" : 2,
      "pad_t" : 0,
      "weights" : {

      },
      "size_y" : 3,
      "type" : "pool",
      "pad_r" : 0,
      "pad_b" : 0,
      "size_x" : 3,
      "pad_fill_mode" : 0,
      "bottom" : "mixed_2\/join:0",
      "pad_l" : 0,
      "name" : "mixed_3\/pool:0",
      "top" : "mixed_3\/pool:0"
    },
    {
      "pad_r" : 0,
      "fused_relu" : 1,
      "fused_tanh" : 0,
      "pad_fill_mode" : 0,
      "pad_b" : 0,
      "pad_l" : 0,
      "top" : "mixed_3\/tower\/conv:0",
      "blob_weights" : 107,
      "K" : 288,
      "blob_biases" : 105,
      "name" : "mixed_3\/tower\/conv\/Conv2D:0",
      "has_batch_norm" : 0,
      "type" : "convolution",
      "n_groups" : 1,
      "pad_t" : 0,
      "has_biases" : 1,
      "C" : 64,
      "bottom" : "mixed_2\/join:0",
      "weights" : {

      },
      "pad_mode" : 1,
      "Nx" : 1,
      "pad_value" : 0,
      "Ny" : 1,
      "n_parallel" : 1
    },
    {
      "pad_r" : 0,
      "fused_relu" : 1,
      "fused_tanh" : 0,
      "pad_fill_mode" : 0,
      "pad_b" : 0,
      "pad_l" : 0,
      "top" : "mixed_3\/tower\/conv_1:0",
      "blob_weights" : 111,
      "K" : 64,
      "blob_biases" : 109,
      "name" : "mixed_3\/tower\/conv_1\/Conv2D:0",
      "has_batch_norm" : 0,
      "type" : "convolution",
      "n_groups" : 1,
      "pad_t" : 0,
      "has_biases" : 1,
      "C" : 96,
      "bottom" : "mixed_3\/tower\/conv:0",
      "weights" : {

      },
      "pad_mode" : 1,
      "Nx" : 3,
      "pad_value" : 0,
      "Ny" : 3,
      "n_parallel" : 1
    },
    {
      "pad_r" : 0,
      "fused_relu" : 1,
      "fused_tanh" : 0,
      "pad_fill_mode" : 0,
      "pad_b" : 0,
      "pad_l" : 0,
      "top" : "mixed_3\/tower\/conv_2:0",
      "blob_weights" : 115,
      "K" : 96,
      "blob_biases" : 113,
      "stride_x" : 2,
      "name" : "mixed_3\/tower\/conv_2\/Conv2D:0",
      "has_batch_norm" : 0,
      "type" : "convolution",
      "n_groups" : 1,
      "pad_t" : 0,
      "stride_y" : 2,
      "has_biases" : 1,
      "C" : 96,
      "bottom" : "mixed_3\/tower\/conv_1:0",
      "weights" : {

      },
      "Nx" : 3,
      "pad_mode" : 0,
      "pad_value" : 0,
      "Ny" : 3,
      "n_parallel" : 1
    },
    {
      "pad_r" : 0,
      "fused_relu" : 1,
      "fused_tanh" : 0,
      "pad_fill_mode" : 0,
      "pad_b" : 0,
      "pad_l" : 0,
      "top" : "mixed_3\/conv:0",
      "blob_weights" : 119,
      "K" : 288,
      "blob_biases" : 117,
      "stride_x" : 2,
      "name" : "mixed_3\/conv\/Conv2D:0",
      "has_batch_norm" : 0,
      "type" : "convolution",
      "n_groups" : 1,
      "pad_t" : 0,
      "stride_y" : 2,
      "has_biases" : 1,
      "C" : 384,
      "bottom" : "mixed_2\/join:0",
      "weights" : {

      },
      "Nx" : 3,
      "pad_mode" : 0,
      "pad_value" : 0,
      "Ny" : 3,
      "n_parallel" : 1
    },
    {
      "alpha" : 1,
      "bottom" : "mixed_3\/pool:0",
      "weights" : {

      },
      "mode" : 6,
      "top" : "mixed_3\/pool:0__linear_activation",
      "type" : "activation",
      "name" : "mixed_3\/pool:0__linear_activation",
      "beta" : 0
    },
    {
      "weights" : {

      },
      "top" : "mixed_3\/join:0",
      "type" : "concat",
      "name" : "mixed_3\/join:0",
      "bottom" : "mixed_3\/conv:0,mixed_3\/tower\/conv_2:0,mixed_3\/pool:0__linear_activation"
    },
    {
      "pad_value" : 0,
      "average_count_exclude_padding" : 1,
      "top_shape_style" : 0,
      "avg_or_max" : 0,
      "stride_x" : 1,
      "pad_mode" : 1,
      "stride_y" : 1,
      "pad_t" : 0,
      "weights" : {

      },
      "size_y" : 3,
      "type" : "pool",
      "pad_r" : 0,
      "pad_b" : 0,
      "size_x" : 3,
      "pad_fill_mode" : 0,
      "bottom" : "mixed_3\/join:0",
      "pad_l" : 0,
      "name" : "mixed_4\/tower_2\/pool:0",
      "top" : "mixed_4\/tower_2\/pool:0"
    },
    {
      "pad_r" : 0,
      "fused_relu" : 1,
      "fused_tanh" : 0,
      "pad_fill_mode" : 0,
      "pad_b" : 0,
      "pad_l" : 0,
      "top" : "mixed_4\/tower_2\/conv:0",
      "blob_weights" : 123,
      "K" : 768,
      "blob_biases" : 121,
      "name" : "mixed_4\/tower_2\/conv\/Conv2D:0",
      "has_batch_norm" : 0,
      "type" : "convolution",
      "n_groups" : 1,
      "pad_t" : 0,
      "has_biases" : 1,
      "C" : 192,
      "bottom" : "mixed_4\/tower_2\/pool:0",
      "weights" : {

      },
      "pad_mode" : 1,
      "Nx" : 1,
      "pad_value" : 0,
      "Ny" : 1,
      "n_parallel" : 1
    },
    {
      "pad_r" : 0,
      "fused_relu" : 1,
      "fused_tanh" : 0,
      "pad_fill_mode" : 0,
      "pad_b" : 0,
      "pad_l" : 0,
      "top" : "mixed_4\/tower_1\/conv:0",
      "blob_weights" : 127,
      "K" : 768,
      "blob_biases" : 125,
      "name" : "mixed_4\/tower_1\/conv\/Conv2D:0",
      "has_batch_norm" : 0,
      "type" : "convolution",
      "n_groups" : 1,
      "pad_t" : 0,
      "has_biases" : 1,
      "C" : 128,
      "bottom" : "mixed_3\/join:0",
      "weights" : {

      },
      "pad_mode" : 1,
      "Nx" : 1,
      "pad_value" : 0,
      "Ny" : 1,
      "n_parallel" : 1
    },
    {
      "pad_r" : 0,
      "fused_relu" : 1,
      "fused_tanh" : 0,
      "pad_fill_mode" : 0,
      "pad_b" : 0,
      "pad_l" : 0,
      "top" : "mixed_4\/tower_1\/conv_1:0",
      "blob_weights" : 131,
      "K" : 128,
      "blob_biases" : 129,
      "name" : "mixed_4\/tower_1\/conv_1\/Conv2D:0",
      "has_batch_norm" : 0,
      "type" : "convolution",
      "n_groups" : 1,
      "pad_t" : 0,
      "has_biases" : 1,
      "C" : 128,
      "bottom" : "mixed_4\/tower_1\/conv:0",
      "weights" : {

      },
      "pad_mode" : 1,
      "Nx" : 1,
      "pad_value" : 0,
      "Ny" : 7,
      "n_parallel" : 1
    },
    {
      "pad_r" : 0,
      "fused_relu" : 1,
      "fused_tanh" : 0,
      "pad_fill_mode" : 0,
      "pad_b" : 0,
      "pad_l" : 0,
      "top" : "mixed_4\/tower_1\/conv_2:0",
      "blob_weights" : 135,
      "K" : 128,
      "blob_biases" : 133,
      "name" : "mixed_4\/tower_1\/conv_2\/Conv2D:0",
      "has_batch_norm" : 0,
      "type" : "convolution",
      "n_groups" : 1,
      "pad_t" : 0,
      "has_biases" : 1,
      "C" : 128,
      "bottom" : "mixed_4\/tower_1\/conv_1:0",
      "weights" : {

      },
      "pad_mode" : 1,
      "Nx" : 7,
      "pad_value" : 0,
      "Ny" : 1,
      "n_parallel" : 1
    },
    {
      "pad_r" : 0,
      "fused_relu" : 1,
      "fused_tanh" : 0,
      "pad_fill_mode" : 0,
      "pad_b" : 0,
      "pad_l" : 0,
      "top" : "mixed_4\/tower_1\/conv_3:0",
      "blob_weights" : 139,
      "K" : 128,
      "blob_biases" : 137,
      "name" : "mixed_4\/tower_1\/conv_3\/Conv2D:0",
      "has_batch_norm" : 0,
      "type" : "convolution",
      "n_groups" : 1,
      "pad_t" : 0,
      "has_biases" : 1,
      "C" : 128,
      "bottom" : "mixed_4\/tower_1\/conv_2:0",
      "weights" : {

      },
      "pad_mode" : 1,
      "Nx" : 1,
      "pad_value" : 0,
      "Ny" : 7,
      "n_parallel" : 1
    },
    {
      "pad_r" : 0,
      "fused_relu" : 1,
      "fused_tanh" : 0,
      "pad_fill_mode" : 0,
      "pad_b" : 0,
      "pad_l" : 0,
      "top" : "mixed_4\/tower_1\/conv_4:0",
      "blob_weights" : 143,
      "K" : 128,
      "blob_biases" : 141,
      "name" : "mixed_4\/tower_1\/conv_4\/Conv2D:0",
      "has_batch_norm" : 0,
      "type" : "convolution",
      "n_groups" : 1,
      "pad_t" : 0,
      "has_biases" : 1,
      "C" : 192,
      "bottom" : "mixed_4\/tower_1\/conv_3:0",
      "weights" : {

      },
      "pad_mode" : 1,
      "Nx" : 7,
      "pad_value" : 0,
      "Ny" : 1,
      "n_parallel" : 1
    },
    {
      "pad_r" : 0,
      "fused_relu" : 1,
      "fused_tanh" : 0,
      "pad_fill_mode" : 0,
      "pad_b" : 0,
      "pad_l" : 0,
      "top" : "mixed_4\/tower\/conv:0",
      "blob_weights" : 147,
      "K" : 768,
      "blob_biases" : 145,
      "name" : "mixed_4\/tower\/conv\/Conv2D:0",
      "has_batch_norm" : 0,
      "type" : "convolution",
      "n_groups" : 1,
      "pad_t" : 0,
      "has_biases" : 1,
      "C" : 128,
      "bottom" : "mixed_3\/join:0",
      "weights" : {

      },
      "pad_mode" : 1,
      "Nx" : 1,
      "pad_value" : 0,
      "Ny" : 1,
      "n_parallel" : 1
    },
    {
      "pad_r" : 0,
      "fused_relu" : 1,
      "fused_tanh" : 0,
      "pad_fill_mode" : 0,
      "pad_b" : 0,
      "pad_l" : 0,
      "top" : "mixed_4\/tower\/conv_1:0",
      "blob_weights" : 151,
      "K" : 128,
      "blob_biases" : 149,
      "name" : "mixed_4\/tower\/conv_1\/Conv2D:0",
      "has_batch_norm" : 0,
      "type" : "convolution",
      "n_groups" : 1,
      "pad_t" : 0,
      "has_biases" : 1,
      "C" : 128,
      "bottom" : "mixed_4\/tower\/conv:0",
      "weights" : {

      },
      "pad_mode" : 1,
      "Nx" : 7,
      "pad_value" : 0,
      "Ny" : 1,
      "n_parallel" : 1
    },
    {
      "pad_r" : 0,
      "fused_relu" : 1,
      "fused_tanh" : 0,
      "pad_fill_mode" : 0,
      "pad_b" : 0,
      "pad_l" : 0,
      "top" : "mixed_4\/tower\/conv_2:0",
      "blob_weights" : 155,
      "K" : 128,
      "blob_biases" : 153,
      "name" : "mixed_4\/tower\/conv_2\/Conv2D:0",
      "has_batch_norm" : 0,
      "type" : "convolution",
      "n_groups" : 1,
      "pad_t" : 0,
      "has_biases" : 1,
      "C" : 192,
      "bottom" : "mixed_4\/tower\/conv_1:0",
      "weights" : {

      },
      "pad_mode" : 1,
      "Nx" : 1,
      "pad_value" : 0,
      "Ny" : 7,
      "n_parallel" : 1
    },
    {
      "pad_r" : 0,
      "fused_relu" : 1,
      "fused_tanh" : 0,
      "pad_fill_mode" : 0,
      "pad_b" : 0,
      "pad_l" : 0,
      "top" : "mixed_4\/conv:0",
      "blob_weights" : 159,
      "K" : 768,
      "blob_biases" : 157,
      "name" : "mixed_4\/conv\/Conv2D:0",
      "has_batch_norm" : 0,
      "type" : "convolution",
      "n_groups" : 1,
      "pad_t" : 0,
      "has_biases" : 1,
      "C" : 192,
      "bottom" : "mixed_3\/join:0",
      "weights" : {

      },
      "pad_mode" : 1,
      "Nx" : 1,
      "pad_value" : 0,
      "Ny" : 1,
      "n_parallel" : 1
    },
    {
      "weights" : {

      },
      "top" : "mixed_4\/join:0",
      "type" : "concat",
      "name" : "mixed_4\/join:0",
      "bottom" : "mixed_4\/conv:0,mixed_4\/tower\/conv_2:0,mixed_4\/tower_1\/conv_4:0,mixed_4\/tower_2\/conv:0"
    },
    {
      "pad_value" : 0,
      "average_count_exclude_padding" : 1,
      "top_shape_style" : 0,
      "avg_or_max" : 0,
      "stride_x" : 1,
      "pad_mode" : 1,
      "stride_y" : 1,
      "pad_t" : 0,
      "weights" : {

      },
      "size_y" : 3,
      "type" : "pool",
      "pad_r" : 0,
      "pad_b" : 0,
      "size_x" : 3,
      "pad_fill_mode" : 0,
      "bottom" : "mixed_4\/join:0",
      "pad_l" : 0,
      "name" : "mixed_5\/tower_2\/pool:0",
      "top" : "mixed_5\/tower_2\/pool:0"
    },
    {
      "pad_r" : 0,
      "fused_relu" : 1,
      "fused_tanh" : 0,
      "pad_fill_mode" : 0,
      "pad_b" : 0,
      "pad_l" : 0,
      "top" : "mixed_5\/tower_2\/conv:0",
      "blob_weights" : 163,
      "K" : 768,
      "blob_biases" : 161,
      "name" : "mixed_5\/tower_2\/conv\/Conv2D:0",
      "has_batch_norm" : 0,
      "type" : "convolution",
      "n_groups" : 1,
      "pad_t" : 0,
      "has_biases" : 1,
      "C" : 192,
      "bottom" : "mixed_5\/tower_2\/pool:0",
      "weights" : {

      },
      "pad_mode" : 1,
      "Nx" : 1,
      "pad_value" : 0,
      "Ny" : 1,
      "n_parallel" : 1
    },
    {
      "pad_r" : 0,
      "fused_relu" : 1,
      "fused_tanh" : 0,
      "pad_fill_mode" : 0,
      "pad_b" : 0,
      "pad_l" : 0,
      "top" : "mixed_5\/tower_1\/conv:0",
      "blob_weights" : 167,
      "K" : 768,
      "blob_biases" : 165,
      "name" : "mixed_5\/tower_1\/conv\/Conv2D:0",
      "has_batch_norm" : 0,
      "type" : "convolution",
      "n_groups" : 1,
      "pad_t" : 0,
      "has_biases" : 1,
      "C" : 160,
      "bottom" : "mixed_4\/join:0",
      "weights" : {

      },
      "pad_mode" : 1,
      "Nx" : 1,
      "pad_value" : 0,
      "Ny" : 1,
      "n_parallel" : 1
    },
    {
      "pad_r" : 0,
      "fused_relu" : 1,
      "fused_tanh" : 0,
      "pad_fill_mode" : 0,
      "pad_b" : 0,
      "pad_l" : 0,
      "top" : "mixed_5\/tower_1\/conv_1:0",
      "blob_weights" : 171,
      "K" : 160,
      "blob_biases" : 169,
      "name" : "mixed_5\/tower_1\/conv_1\/Conv2D:0",
      "has_batch_norm" : 0,
      "type" : "convolution",
      "n_groups" : 1,
      "pad_t" : 0,
      "has_biases" : 1,
      "C" : 160,
      "bottom" : "mixed_5\/tower_1\/conv:0",
      "weights" : {

      },
      "pad_mode" : 1,
      "Nx" : 1,
      "pad_value" : 0,
      "Ny" : 7,
      "n_parallel" : 1
    },
    {
      "pad_r" : 0,
      "fused_relu" : 1,
      "fused_tanh" : 0,
      "pad_fill_mode" : 0,
      "pad_b" : 0,
      "pad_l" : 0,
      "top" : "mixed_5\/tower_1\/conv_2:0",
      "blob_weights" : 175,
      "K" : 160,
      "blob_biases" : 173,
      "name" : "mixed_5\/tower_1\/conv_2\/Conv2D:0",
      "has_batch_norm" : 0,
      "type" : "convolution",
      "n_groups" : 1,
      "pad_t" : 0,
      "has_biases" : 1,
      "C" : 160,
      "bottom" : "mixed_5\/tower_1\/conv_1:0",
      "weights" : {

      },
      "pad_mode" : 1,
      "Nx" : 7,
      "pad_value" : 0,
      "Ny" : 1,
      "n_parallel" : 1
    },
    {
      "pad_r" : 0,
      "fused_relu" : 1,
      "fused_tanh" : 0,
      "pad_fill_mode" : 0,
      "pad_b" : 0,
      "pad_l" : 0,
      "top" : "mixed_5\/tower_1\/conv_3:0",
      "blob_weights" : 179,
      "K" : 160,
      "blob_biases" : 177,
      "name" : "mixed_5\/tower_1\/conv_3\/Conv2D:0",
      "has_batch_norm" : 0,
      "type" : "convolution",
      "n_groups" : 1,
      "pad_t" : 0,
      "has_biases" : 1,
      "C" : 160,
      "bottom" : "mixed_5\/tower_1\/conv_2:0",
      "weights" : {

      },
      "pad_mode" : 1,
      "Nx" : 1,
      "pad_value" : 0,
      "Ny" : 7,
      "n_parallel" : 1
    },
    {
      "pad_r" : 0,
      "fused_relu" : 1,
      "fused_tanh" : 0,
      "pad_fill_mode" : 0,
      "pad_b" : 0,
      "pad_l" : 0,
      "top" : "mixed_5\/tower_1\/conv_4:0",
      "blob_weights" : 183,
      "K" : 160,
      "blob_biases" : 181,
      "name" : "mixed_5\/tower_1\/conv_4\/Conv2D:0",
      "has_batch_norm" : 0,
      "type" : "convolution",
      "n_groups" : 1,
      "pad_t" : 0,
      "has_biases" : 1,
      "C" : 192,
      "bottom" : "mixed_5\/tower_1\/conv_3:0",
      "weights" : {

      },
      "pad_mode" : 1,
      "Nx" : 7,
      "pad_value" : 0,
      "Ny" : 1,
      "n_parallel" : 1
    },
    {
      "pad_r" : 0,
      "fused_relu" : 1,
      "fused_tanh" : 0,
      "pad_fill_mode" : 0,
      "pad_b" : 0,
      "pad_l" : 0,
      "top" : "mixed_5\/tower\/conv:0",
      "blob_weights" : 187,
      "K" : 768,
      "blob_biases" : 185,
      "name" : "mixed_5\/tower\/conv\/Conv2D:0",
      "has_batch_norm" : 0,
      "type" : "convolution",
      "n_groups" : 1,
      "pad_t" : 0,
      "has_biases" : 1,
      "C" : 160,
      "bottom" : "mixed_4\/join:0",
      "weights" : {

      },
      "pad_mode" : 1,
      "Nx" : 1,
      "pad_value" : 0,
      "Ny" : 1,
      "n_parallel" : 1
    },
    {
      "pad_r" : 0,
      "fused_relu" : 1,
      "fused_tanh" : 0,
      "pad_fill_mode" : 0,
      "pad_b" : 0,
      "pad_l" : 0,
      "top" : "mixed_5\/tower\/conv_1:0",
      "blob_weights" : 191,
      "K" : 160,
      "blob_biases" : 189,
      "name" : "mixed_5\/tower\/conv_1\/Conv2D:0",
      "has_batch_norm" : 0,
      "type" : "convolution",
      "n_groups" : 1,
      "pad_t" : 0,
      "has_biases" : 1,
      "C" : 160,
      "bottom" : "mixed_5\/tower\/conv:0",
      "weights" : {

      },
      "pad_mode" : 1,
      "Nx" : 7,
      "pad_value" : 0,
      "Ny" : 1,
      "n_parallel" : 1
    },
    {
      "pad_r" : 0,
      "fused_relu" : 1,
      "fused_tanh" : 0,
      "pad_fill_mode" : 0,
      "pad_b" : 0,
      "pad_l" : 0,
      "top" : "mixed_5\/tower\/conv_2:0",
      "blob_weights" : 195,
      "K" : 160,
      "blob_biases" : 193,
      "name" : "mixed_5\/tower\/conv_2\/Conv2D:0",
      "has_batch_norm" : 0,
      "type" : "convolution",
      "n_groups" : 1,
      "pad_t" : 0,
      "has_biases" : 1,
      "C" : 192,
      "bottom" : "mixed_5\/tower\/conv_1:0",
      "weights" : {

      },
      "pad_mode" : 1,
      "Nx" : 1,
      "pad_value" : 0,
      "Ny" : 7,
      "n_parallel" : 1
    },
    {
      "pad_r" : 0,
      "fused_relu" : 1,
      "fused_tanh" : 0,
      "pad_fill_mode" : 0,
      "pad_b" : 0,
      "pad_l" : 0,
      "top" : "mixed_5\/conv:0",
      "blob_weights" : 199,
      "K" : 768,
      "blob_biases" : 197,
      "name" : "mixed_5\/conv\/Conv2D:0",
      "has_batch_norm" : 0,
      "type" : "convolution",
      "n_groups" : 1,
      "pad_t" : 0,
      "has_biases" : 1,
      "C" : 192,
      "bottom" : "mixed_4\/join:0",
      "weights" : {

      },
      "pad_mode" : 1,
      "Nx" : 1,
      "pad_value" : 0,
      "Ny" : 1,
      "n_parallel" : 1
    },
    {
      "weights" : {

      },
      "top" : "mixed_5\/join:0",
      "type" : "concat",
      "name" : "mixed_5\/join:0",
      "bottom" : "mixed_5\/conv:0,mixed_5\/tower\/conv_2:0,mixed_5\/tower_1\/conv_4:0,mixed_5\/tower_2\/conv:0"
    },
    {
      "pad_value" : 0,
      "average_count_exclude_padding" : 1,
      "top_shape_style" : 0,
      "avg_or_max" : 0,
      "stride_x" : 1,
      "pad_mode" : 1,
      "stride_y" : 1,
      "pad_t" : 0,
      "weights" : {

      },
      "size_y" : 3,
      "type" : "pool",
      "pad_r" : 0,
      "pad_b" : 0,
      "size_x" : 3,
      "pad_fill_mode" : 0,
      "bottom" : "mixed_5\/join:0",
      "pad_l" : 0,
      "name" : "mixed_6\/tower_2\/pool:0",
      "top" : "mixed_6\/tower_2\/pool:0"
    },
    {
      "pad_r" : 0,
      "fused_relu" : 1,
      "fused_tanh" : 0,
      "pad_fill_mode" : 0,
      "pad_b" : 0,
      "pad_l" : 0,
      "top" : "mixed_6\/tower_2\/conv:0",
      "blob_weights" : 203,
      "K" : 768,
      "blob_biases" : 201,
      "name" : "mixed_6\/tower_2\/conv\/Conv2D:0",
      "has_batch_norm" : 0,
      "type" : "convolution",
      "n_groups" : 1,
      "pad_t" : 0,
      "has_biases" : 1,
      "C" : 192,
      "bottom" : "mixed_6\/tower_2\/pool:0",
      "weights" : {

      },
      "pad_mode" : 1,
      "Nx" : 1,
      "pad_value" : 0,
      "Ny" : 1,
      "n_parallel" : 1
    },
    {
      "pad_r" : 0,
      "fused_relu" : 1,
      "fused_tanh" : 0,
      "pad_fill_mode" : 0,
      "pad_b" : 0,
      "pad_l" : 0,
      "top" : "mixed_6\/tower_1\/conv:0",
      "blob_weights" : 207,
      "K" : 768,
      "blob_biases" : 205,
      "name" : "mixed_6\/tower_1\/conv\/Conv2D:0",
      "has_batch_norm" : 0,
      "type" : "convolution",
      "n_groups" : 1,
      "pad_t" : 0,
      "has_biases" : 1,
      "C" : 160,
      "bottom" : "mixed_5\/join:0",
      "weights" : {

      },
      "pad_mode" : 1,
      "Nx" : 1,
      "pad_value" : 0,
      "Ny" : 1,
      "n_parallel" : 1
    },
    {
      "pad_r" : 0,
      "fused_relu" : 1,
      "fused_tanh" : 0,
      "pad_fill_mode" : 0,
      "pad_b" : 0,
      "pad_l" : 0,
      "top" : "mixed_6\/tower_1\/conv_1:0",
      "blob_weights" : 211,
      "K" : 160,
      "blob_biases" : 209,
      "name" : "mixed_6\/tower_1\/conv_1\/Conv2D:0",
      "has_batch_norm" : 0,
      "type" : "convolution",
      "n_groups" : 1,
      "pad_t" : 0,
      "has_biases" : 1,
      "C" : 160,
      "bottom" : "mixed_6\/tower_1\/conv:0",
      "weights" : {

      },
      "pad_mode" : 1,
      "Nx" : 1,
      "pad_value" : 0,
      "Ny" : 7,
      "n_parallel" : 1
    },
    {
      "pad_r" : 0,
      "fused_relu" : 1,
      "fused_tanh" : 0,
      "pad_fill_mode" : 0,
      "pad_b" : 0,
      "pad_l" : 0,
      "top" : "mixed_6\/tower_1\/conv_2:0",
      "blob_weights" : 215,
      "K" : 160,
      "blob_biases" : 213,
      "name" : "mixed_6\/tower_1\/conv_2\/Conv2D:0",
      "has_batch_norm" : 0,
      "type" : "convolution",
      "n_groups" : 1,
      "pad_t" : 0,
      "has_biases" : 1,
      "C" : 160,
      "bottom" : "mixed_6\/tower_1\/conv_1:0",
      "weights" : {

      },
      "pad_mode" : 1,
      "Nx" : 7,
      "pad_value" : 0,
      "Ny" : 1,
      "n_parallel" : 1
    },
    {
      "pad_r" : 0,
      "fused_relu" : 1,
      "fused_tanh" : 0,
      "pad_fill_mode" : 0,
      "pad_b" : 0,
      "pad_l" : 0,
      "top" : "mixed_6\/tower_1\/conv_3:0",
      "blob_weights" : 219,
      "K" : 160,
      "blob_biases" : 217,
      "name" : "mixed_6\/tower_1\/conv_3\/Conv2D:0",
      "has_batch_norm" : 0,
      "type" : "convolution",
      "n_groups" : 1,
      "pad_t" : 0,
      "has_biases" : 1,
      "C" : 160,
      "bottom" : "mixed_6\/tower_1\/conv_2:0",
      "weights" : {

      },
      "pad_mode" : 1,
      "Nx" : 1,
      "pad_value" : 0,
      "Ny" : 7,
      "n_parallel" : 1
    },
    {
      "pad_r" : 0,
      "fused_relu" : 1,
      "fused_tanh" : 0,
      "pad_fill_mode" : 0,
      "pad_b" : 0,
      "pad_l" : 0,
      "top" : "mixed_6\/tower_1\/conv_4:0",
      "blob_weights" : 223,
      "K" : 160,
      "blob_biases" : 221,
      "name" : "mixed_6\/tower_1\/conv_4\/Conv2D:0",
      "has_batch_norm" : 0,
      "type" : "convolution",
      "n_groups" : 1,
      "pad_t" : 0,
      "has_biases" : 1,
      "C" : 192,
      "bottom" : "mixed_6\/tower_1\/conv_3:0",
      "weights" : {

      },
      "pad_mode" : 1,
      "Nx" : 7,
      "pad_value" : 0,
      "Ny" : 1,
      "n_parallel" : 1
    },
    {
      "pad_r" : 0,
      "fused_relu" : 1,
      "fused_tanh" : 0,
      "pad_fill_mode" : 0,
      "pad_b" : 0,
      "pad_l" : 0,
      "top" : "mixed_6\/tower\/conv:0",
      "blob_weights" : 227,
      "K" : 768,
      "blob_biases" : 225,
      "name" : "mixed_6\/tower\/conv\/Conv2D:0",
      "has_batch_norm" : 0,
      "type" : "convolution",
      "n_groups" : 1,
      "pad_t" : 0,
      "has_biases" : 1,
      "C" : 160,
      "bottom" : "mixed_5\/join:0",
      "weights" : {

      },
      "pad_mode" : 1,
      "Nx" : 1,
      "pad_value" : 0,
      "Ny" : 1,
      "n_parallel" : 1
    },
    {
      "pad_r" : 0,
      "fused_relu" : 1,
      "fused_tanh" : 0,
      "pad_fill_mode" : 0,
      "pad_b" : 0,
      "pad_l" : 0,
      "top" : "mixed_6\/tower\/conv_1:0",
      "blob_weights" : 231,
      "K" : 160,
      "blob_biases" : 229,
      "name" : "mixed_6\/tower\/conv_1\/Conv2D:0",
      "has_batch_norm" : 0,
      "type" : "convolution",
      "n_groups" : 1,
      "pad_t" : 0,
      "has_biases" : 1,
      "C" : 160,
      "bottom" : "mixed_6\/tower\/conv:0",
      "weights" : {

      },
      "pad_mode" : 1,
      "Nx" : 7,
      "pad_value" : 0,
      "Ny" : 1,
      "n_parallel" : 1
    },
    {
      "pad_r" : 0,
      "fused_relu" : 1,
      "fused_tanh" : 0,
      "pad_fill_mode" : 0,
      "pad_b" : 0,
      "pad_l" : 0,
      "top" : "mixed_6\/tower\/conv_2:0",
      "blob_weights" : 235,
      "K" : 160,
      "blob_biases" : 233,
      "name" : "mixed_6\/tower\/conv_2\/Conv2D:0",
      "has_batch_norm" : 0,
      "type" : "convolution",
      "n_groups" : 1,
      "pad_t" : 0,
      "has_biases" : 1,
      "C" : 192,
      "bottom" : "mixed_6\/tower\/conv_1:0",
      "weights" : {

      },
      "pad_mode" : 1,
      "Nx" : 1,
      "pad_value" : 0,
      "Ny" : 7,
      "n_parallel" : 1
    },
    {
      "pad_r" : 0,
      "fused_relu" : 1,
      "fused_tanh" : 0,
      "pad_fill_mode" : 0,
      "pad_b" : 0,
      "pad_l" : 0,
      "top" : "mixed_6\/conv:0",
      "blob_weights" : 239,
      "K" : 768,
      "blob_biases" : 237,
      "name" : "mixed_6\/conv\/Conv2D:0",
      "has_batch_norm" : 0,
      "type" : "convolution",
      "n_groups" : 1,
      "pad_t" : 0,
      "has_biases" : 1,
      "C" : 192,
      "bottom" : "mixed_5\/join:0",
      "weights" : {

      },
      "pad_mode" : 1,
      "Nx" : 1,
      "pad_value" : 0,
      "Ny" : 1,
      "n_parallel" : 1
    },
    {
      "weights" : {

      },
      "top" : "mixed_6\/join:0",
      "type" : "concat",
      "name" : "mixed_6\/join:0",
      "bottom" : "mixed_6\/conv:0,mixed_6\/tower\/conv_2:0,mixed_6\/tower_1\/conv_4:0,mixed_6\/tower_2\/conv:0"
    },
    {
      "pad_value" : 0,
      "average_count_exclude_padding" : 1,
      "top_shape_style" : 0,
      "avg_or_max" : 0,
      "stride_x" : 1,
      "pad_mode" : 1,
      "stride_y" : 1,
      "pad_t" : 0,
      "weights" : {

      },
      "size_y" : 3,
      "type" : "pool",
      "pad_r" : 0,
      "pad_b" : 0,
      "size_x" : 3,
      "pad_fill_mode" : 0,
      "bottom" : "mixed_6\/join:0",
      "pad_l" : 0,
      "name" : "mixed_7\/tower_2\/pool:0",
      "top" : "mixed_7\/tower_2\/pool:0"
    },
    {
      "pad_r" : 0,
      "fused_relu" : 1,
      "fused_tanh" : 0,
      "pad_fill_mode" : 0,
      "pad_b" : 0,
      "pad_l" : 0,
      "top" : "mixed_7\/tower_2\/conv:0",
      "blob_weights" : 243,
      "K" : 768,
      "blob_biases" : 241,
      "name" : "mixed_7\/tower_2\/conv\/Conv2D:0",
      "has_batch_norm" : 0,
      "type" : "convolution",
      "n_groups" : 1,
      "pad_t" : 0,
      "has_biases" : 1,
      "C" : 192,
      "bottom" : "mixed_7\/tower_2\/pool:0",
      "weights" : {

      },
      "pad_mode" : 1,
      "Nx" : 1,
      "pad_value" : 0,
      "Ny" : 1,
      "n_parallel" : 1
    },
    {
      "pad_r" : 0,
      "fused_relu" : 1,
      "fused_tanh" : 0,
      "pad_fill_mode" : 0,
      "pad_b" : 0,
      "pad_l" : 0,
      "top" : "mixed_7\/tower_1\/conv:0",
      "blob_weights" : 247,
      "K" : 768,
      "blob_biases" : 245,
      "name" : "mixed_7\/tower_1\/conv\/Conv2D:0",
      "has_batch_norm" : 0,
      "type" : "convolution",
      "n_groups" : 1,
      "pad_t" : 0,
      "has_biases" : 1,
      "C" : 192,
      "bottom" : "mixed_6\/join:0",
      "weights" : {

      },
      "pad_mode" : 1,
      "Nx" : 1,
      "pad_value" : 0,
      "Ny" : 1,
      "n_parallel" : 1
    },
    {
      "pad_r" : 0,
      "fused_relu" : 1,
      "fused_tanh" : 0,
      "pad_fill_mode" : 0,
      "pad_b" : 0,
      "pad_l" : 0,
      "top" : "mixed_7\/tower_1\/conv_1:0",
      "blob_weights" : 251,
      "K" : 192,
      "blob_biases" : 249,
      "name" : "mixed_7\/tower_1\/conv_1\/Conv2D:0",
      "has_batch_norm" : 0,
      "type" : "convolution",
      "n_groups" : 1,
      "pad_t" : 0,
      "has_biases" : 1,
      "C" : 192,
      "bottom" : "mixed_7\/tower_1\/conv:0",
      "weights" : {

      },
      "pad_mode" : 1,
      "Nx" : 1,
      "pad_value" : 0,
      "Ny" : 7,
      "n_parallel" : 1
    },
    {
      "pad_r" : 0,
      "fused_relu" : 1,
      "fused_tanh" : 0,
      "pad_fill_mode" : 0,
      "pad_b" : 0,
      "pad_l" : 0,
      "top" : "mixed_7\/tower_1\/conv_2:0",
      "blob_weights" : 255,
      "K" : 192,
      "blob_biases" : 253,
      "name" : "mixed_7\/tower_1\/conv_2\/Conv2D:0",
      "has_batch_norm" : 0,
      "type" : "convolution",
      "n_groups" : 1,
      "pad_t" : 0,
      "has_biases" : 1,
      "C" : 192,
      "bottom" : "mixed_7\/tower_1\/conv_1:0",
      "weights" : {

      },
      "pad_mode" : 1,
      "Nx" : 7,
      "pad_value" : 0,
      "Ny" : 1,
      "n_parallel" : 1
    },
    {
      "pad_r" : 0,
      "fused_relu" : 1,
      "fused_tanh" : 0,
      "pad_fill_mode" : 0,
      "pad_b" : 0,
      "pad_l" : 0,
      "top" : "mixed_7\/tower_1\/conv_3:0",
      "blob_weights" : 259,
      "K" : 192,
      "blob_biases" : 257,
      "name" : "mixed_7\/tower_1\/conv_3\/Conv2D:0",
      "has_batch_norm" : 0,
      "type" : "convolution",
      "n_groups" : 1,
      "pad_t" : 0,
      "has_biases" : 1,
      "C" : 192,
      "bottom" : "mixed_7\/tower_1\/conv_2:0",
      "weights" : {

      },
      "pad_mode" : 1,
      "Nx" : 1,
      "pad_value" : 0,
      "Ny" : 7,
      "n_parallel" : 1
    },
    {
      "pad_r" : 0,
      "fused_relu" : 1,
      "fused_tanh" : 0,
      "pad_fill_mode" : 0,
      "pad_b" : 0,
      "pad_l" : 0,
      "top" : "mixed_7\/tower_1\/conv_4:0",
      "blob_weights" : 263,
      "K" : 192,
      "blob_biases" : 261,
      "name" : "mixed_7\/tower_1\/conv_4\/Conv2D:0",
      "has_batch_norm" : 0,
      "type" : "convolution",
      "n_groups" : 1,
      "pad_t" : 0,
      "has_biases" : 1,
      "C" : 192,
      "bottom" : "mixed_7\/tower_1\/conv_3:0",
      "weights" : {

      },
      "pad_mode" : 1,
      "Nx" : 7,
      "pad_value" : 0,
      "Ny" : 1,
      "n_parallel" : 1
    },
    {
      "pad_r" : 0,
      "fused_relu" : 1,
      "fused_tanh" : 0,
      "pad_fill_mode" : 0,
      "pad_b" : 0,
      "pad_l" : 0,
      "top" : "mixed_7\/tower\/conv:0",
      "blob_weights" : 267,
      "K" : 768,
      "blob_biases" : 265,
      "name" : "mixed_7\/tower\/conv\/Conv2D:0",
      "has_batch_norm" : 0,
      "type" : "convolution",
      "n_groups" : 1,
      "pad_t" : 0,
      "has_biases" : 1,
      "C" : 192,
      "bottom" : "mixed_6\/join:0",
      "weights" : {

      },
      "pad_mode" : 1,
      "Nx" : 1,
      "pad_value" : 0,
      "Ny" : 1,
      "n_parallel" : 1
    },
    {
      "pad_r" : 0,
      "fused_relu" : 1,
      "fused_tanh" : 0,
      "pad_fill_mode" : 0,
      "pad_b" : 0,
      "pad_l" : 0,
      "top" : "mixed_7\/tower\/conv_1:0",
      "blob_weights" : 271,
      "K" : 192,
      "blob_biases" : 269,
      "name" : "mixed_7\/tower\/conv_1\/Conv2D:0",
      "has_batch_norm" : 0,
      "type" : "convolution",
      "n_groups" : 1,
      "pad_t" : 0,
      "has_biases" : 1,
      "C" : 192,
      "bottom" : "mixed_7\/tower\/conv:0",
      "weights" : {

      },
      "pad_mode" : 1,
      "Nx" : 7,
      "pad_value" : 0,
      "Ny" : 1,
      "n_parallel" : 1
    },
    {
      "pad_r" : 0,
      "fused_relu" : 1,
      "fused_tanh" : 0,
      "pad_fill_mode" : 0,
      "pad_b" : 0,
      "pad_l" : 0,
      "top" : "mixed_7\/tower\/conv_2:0",
      "blob_weights" : 275,
      "K" : 192,
      "blob_biases" : 273,
      "name" : "mixed_7\/tower\/conv_2\/Conv2D:0",
      "has_batch_norm" : 0,
      "type" : "convolution",
      "n_groups" : 1,
      "pad_t" : 0,
      "has_biases" : 1,
      "C" : 192,
      "bottom" : "mixed_7\/tower\/conv_1:0",
      "weights" : {

      },
      "pad_mode" : 1,
      "Nx" : 1,
      "pad_value" : 0,
      "Ny" : 7,
      "n_parallel" : 1
    },
    {
      "pad_r" : 0,
      "fused_relu" : 1,
      "fused_tanh" : 0,
      "pad_fill_mode" : 0,
      "pad_b" : 0,
      "pad_l" : 0,
      "top" : "mixed_7\/conv:0",
      "blob_weights" : 279,
      "K" : 768,
      "blob_biases" : 277,
      "name" : "mixed_7\/conv\/Conv2D:0",
      "has_batch_norm" : 0,
      "type" : "convolution",
      "n_groups" : 1,
      "pad_t" : 0,
      "has_biases" : 1,
      "C" : 192,
      "bottom" : "mixed_6\/join:0",
      "weights" : {

      },
      "pad_mode" : 1,
      "Nx" : 1,
      "pad_value" : 0,
      "Ny" : 1,
      "n_parallel" : 1
    },
    {
      "weights" : {

      },
      "top" : "mixed_7\/join:0",
      "type" : "concat",
      "name" : "mixed_7\/join:0",
      "bottom" : "mixed_7\/conv:0,mixed_7\/tower\/conv_2:0,mixed_7\/tower_1\/conv_4:0,mixed_7\/tower_2\/conv:0"
    },
    {
      "pad_value" : 0,
      "average_count_exclude_padding" : 1,
      "top_shape_style" : 0,
      "avg_or_max" : 1,
      "stride_x" : 2,
      "pad_mode" : 2,
      "stride_y" : 2,
      "pad_t" : 0,
      "weights" : {

      },
      "size_y" : 3,
      "type" : "pool",
      "pad_r" : 0,
      "pad_b" : 0,
      "size_x" : 3,
      "pad_fill_mode" : 0,
      "bottom" : "mixed_7\/join:0",
      "pad_l" : 0,
      "name" : "mixed_8\/pool:0",
      "top" : "mixed_8\/pool:0"
    },
    {
      "pad_r" : 0,
      "fused_relu" : 1,
      "fused_tanh" : 0,
      "pad_fill_mode" : 0,
      "pad_b" : 0,
      "pad_l" : 0,
      "top" : "mixed_8\/tower_1\/conv:0",
      "blob_weights" : 283,
      "K" : 768,
      "blob_biases" : 281,
      "name" : "mixed_8\/tower_1\/conv\/Conv2D:0",
      "has_batch_norm" : 0,
      "type" : "convolution",
      "n_groups" : 1,
      "pad_t" : 0,
      "has_biases" : 1,
      "C" : 192,
      "bottom" : "mixed_7\/join:0",
      "weights" : {

      },
      "pad_mode" : 1,
      "Nx" : 1,
      "pad_value" : 0,
      "Ny" : 1,
      "n_parallel" : 1
    },
    {
      "pad_r" : 0,
      "fused_relu" : 1,
      "fused_tanh" : 0,
      "pad_fill_mode" : 0,
      "pad_b" : 0,
      "pad_l" : 0,
      "top" : "mixed_8\/tower_1\/conv_1:0",
      "blob_weights" : 287,
      "K" : 192,
      "blob_biases" : 285,
      "name" : "mixed_8\/tower_1\/conv_1\/Conv2D:0",
      "has_batch_norm" : 0,
      "type" : "convolution",
      "n_groups" : 1,
      "pad_t" : 0,
      "has_biases" : 1,
      "C" : 192,
      "bottom" : "mixed_8\/tower_1\/conv:0",
      "weights" : {

      },
      "pad_mode" : 1,
      "Nx" : 7,
      "pad_value" : 0,
      "Ny" : 1,
      "n_parallel" : 1
    },
    {
      "pad_r" : 0,
      "fused_relu" : 1,
      "fused_tanh" : 0,
      "pad_fill_mode" : 0,
      "pad_b" : 0,
      "pad_l" : 0,
      "top" : "mixed_8\/tower_1\/conv_2:0",
      "blob_weights" : 291,
      "K" : 192,
      "blob_biases" : 289,
      "name" : "mixed_8\/tower_1\/conv_2\/Conv2D:0",
      "has_batch_norm" : 0,
      "type" : "convolution",
      "n_groups" : 1,
      "pad_t" : 0,
      "has_biases" : 1,
      "C" : 192,
      "bottom" : "mixed_8\/tower_1\/conv_1:0",
      "weights" : {

      },
      "pad_mode" : 1,
      "Nx" : 1,
      "pad_value" : 0,
      "Ny" : 7,
      "n_parallel" : 1
    },
    {
      "pad_r" : 0,
      "fused_relu" : 1,
      "fused_tanh" : 0,
      "pad_fill_mode" : 0,
      "pad_b" : 0,
      "pad_l" : 0,
      "top" : "mixed_8\/tower_1\/conv_3:0",
      "blob_weights" : 295,
      "K" : 192,
      "blob_biases" : 293,
      "stride_x" : 2,
      "name" : "mixed_8\/tower_1\/conv_3\/Conv2D:0",
      "has_batch_norm" : 0,
      "type" : "convolution",
      "n_groups" : 1,
      "pad_t" : 0,
      "stride_y" : 2,
      "has_biases" : 1,
      "C" : 192,
      "bottom" : "mixed_8\/tower_1\/conv_2:0",
      "weights" : {

      },
      "Nx" : 3,
      "pad_mode" : 0,
      "pad_value" : 0,
      "Ny" : 3,
      "n_parallel" : 1
    },
    {
      "pad_r" : 0,
      "fused_relu" : 1,
      "fused_tanh" : 0,
      "pad_fill_mode" : 0,
      "pad_b" : 0,
      "pad_l" : 0,
      "top" : "mixed_8\/tower\/conv:0",
      "blob_weights" : 299,
      "K" : 768,
      "blob_biases" : 297,
      "name" : "mixed_8\/tower\/conv\/Conv2D:0",
      "has_batch_norm" : 0,
      "type" : "convolution",
      "n_groups" : 1,
      "pad_t" : 0,
      "has_biases" : 1,
      "C" : 192,
      "bottom" : "mixed_7\/join:0",
      "weights" : {

      },
      "pad_mode" : 1,
      "Nx" : 1,
      "pad_value" : 0,
      "Ny" : 1,
      "n_parallel" : 1
    },
    {
      "pad_r" : 0,
      "fused_relu" : 1,
      "fused_tanh" : 0,
      "pad_fill_mode" : 0,
      "pad_b" : 0,
      "pad_l" : 0,
      "top" : "mixed_8\/tower\/conv_1:0",
      "blob_weights" : 303,
      "K" : 192,
      "blob_biases" : 301,
      "stride_x" : 2,
      "name" : "mixed_8\/tower\/conv_1\/Conv2D:0",
      "has_batch_norm" : 0,
      "type" : "convolution",
      "n_groups" : 1,
      "pad_t" : 0,
      "stride_y" : 2,
      "has_biases" : 1,
      "C" : 320,
      "bottom" : "mixed_8\/tower\/conv:0",
      "weights" : {

      },
      "Nx" : 3,
      "pad_mode" : 0,
      "pad_value" : 0,
      "Ny" : 3,
      "n_parallel" : 1
    },
    {
      "alpha" : 1,
      "bottom" : "mixed_8\/pool:0",
      "weights" : {

      },
      "mode" : 6,
      "top" : "mixed_8\/pool:0__linear_activation",
      "type" : "activation",
      "name" : "mixed_8\/pool:0__linear_activation",
      "beta" : 0
    },
    {
      "weights" : {

      },
      "top" : "mixed_8\/join:0",
      "type" : "concat",
      "name" : "mixed_8\/join:0",
      "bottom" : "mixed_8\/tower\/conv_1:0,mixed_8\/tower_1\/conv_3:0,mixed_8\/pool:0__linear_activation"
    },
    {
      "pad_value" : 0,
      "average_count_exclude_padding" : 1,
      "top_shape_style" : 0,
      "avg_or_max" : 0,
      "stride_x" : 1,
      "pad_mode" : 1,
      "stride_y" : 1,
      "pad_t" : 0,
      "weights" : {

      },
      "size_y" : 3,
      "type" : "pool",
      "pad_r" : 0,
      "pad_b" : 0,
      "size_x" : 3,
      "pad_fill_mode" : 0,
      "bottom" : "mixed_8\/join:0",
      "pad_l" : 0,
      "name" : "mixed_9\/tower_2\/pool:0",
      "top" : "mixed_9\/tower_2\/pool:0"
    },
    {
      "pad_r" : 0,
      "fused_relu" : 1,
      "fused_tanh" : 0,
      "pad_fill_mode" : 0,
      "pad_b" : 0,
      "pad_l" : 0,
      "top" : "mixed_9\/tower_2\/conv:0",
      "blob_weights" : 307,
      "K" : 1280,
      "blob_biases" : 305,
      "name" : "mixed_9\/tower_2\/conv\/Conv2D:0",
      "has_batch_norm" : 0,
      "type" : "convolution",
      "n_groups" : 1,
      "pad_t" : 0,
      "has_biases" : 1,
      "C" : 192,
      "bottom" : "mixed_9\/tower_2\/pool:0",
      "weights" : {

      },
      "pad_mode" : 1,
      "Nx" : 1,
      "pad_value" : 0,
      "Ny" : 1,
      "n_parallel" : 1
    },
    {
      "pad_r" : 0,
      "fused_relu" : 1,
      "fused_tanh" : 0,
      "pad_fill_mode" : 0,
      "pad_b" : 0,
      "pad_l" : 0,
      "top" : "mixed_9\/tower_1\/conv:0",
      "blob_weights" : 311,
      "K" : 1280,
      "blob_biases" : 309,
      "name" : "mixed_9\/tower_1\/conv\/Conv2D:0",
      "has_batch_norm" : 0,
      "type" : "convolution",
      "n_groups" : 1,
      "pad_t" : 0,
      "has_biases" : 1,
      "C" : 448,
      "bottom" : "mixed_8\/join:0",
      "weights" : {

      },
      "pad_mode" : 1,
      "Nx" : 1,
      "pad_value" : 0,
      "Ny" : 1,
      "n_parallel" : 1
    },
    {
      "pad_r" : 0,
      "fused_relu" : 1,
      "fused_tanh" : 0,
      "pad_fill_mode" : 0,
      "pad_b" : 0,
      "pad_l" : 0,
      "top" : "mixed_9\/tower_1\/conv_1:0",
      "blob_weights" : 315,
      "K" : 448,
      "blob_biases" : 313,
      "name" : "mixed_9\/tower_1\/conv_1\/Conv2D:0",
      "has_batch_norm" : 0,
      "type" : "convolution",
      "n_groups" : 1,
      "pad_t" : 0,
      "has_biases" : 1,
      "C" : 384,
      "bottom" : "mixed_9\/tower_1\/conv:0",
      "weights" : {

      },
      "pad_mode" : 1,
      "Nx" : 3,
      "pad_value" : 0,
      "Ny" : 3,
      "n_parallel" : 1
    },
    {
      "pad_r" : 0,
      "fused_relu" : 1,
      "fused_tanh" : 0,
      "pad_fill_mode" : 0,
      "pad_b" : 0,
      "pad_l" : 0,
      "top" : "mixed_9\/tower_1\/mixed\/conv_1:0",
      "blob_weights" : 319,
      "K" : 384,
      "blob_biases" : 317,
      "name" : "mixed_9\/tower_1\/mixed\/conv_1\/Conv2D:0",
      "has_batch_norm" : 0,
      "type" : "convolution",
      "n_groups" : 1,
      "pad_t" : 0,
      "has_biases" : 1,
      "C" : 384,
      "bottom" : "mixed_9\/tower_1\/conv_1:0",
      "weights" : {

      },
      "pad_mode" : 1,
      "Nx" : 1,
      "pad_value" : 0,
      "Ny" : 3,
      "n_parallel" : 1
    },
    {
      "pad_r" : 0,
      "fused_relu" : 1,
      "fused_tanh" : 0,
      "pad_fill_mode" : 0,
      "pad_b" : 0,
      "pad_l" : 0,
      "top" : "mixed_9\/tower_1\/mixed\/conv:0",
      "blob_weights" : 323,
      "K" : 384,
      "blob_biases" : 321,
      "name" : "mixed_9\/tower_1\/mixed\/conv\/Conv2D:0",
      "has_batch_norm" : 0,
      "type" : "convolution",
      "n_groups" : 1,
      "pad_t" : 0,
      "has_biases" : 1,
      "C" : 384,
      "bottom" : "mixed_9\/tower_1\/conv_1:0",
      "weights" : {

      },
      "pad_mode" : 1,
      "Nx" : 3,
      "pad_value" : 0,
      "Ny" : 1,
      "n_parallel" : 1
    },
    {
      "pad_r" : 0,
      "fused_relu" : 1,
      "fused_tanh" : 0,
      "pad_fill_mode" : 0,
      "pad_b" : 0,
      "pad_l" : 0,
      "top" : "mixed_9\/tower\/conv:0",
      "blob_weights" : 327,
      "K" : 1280,
      "blob_biases" : 325,
      "name" : "mixed_9\/tower\/conv\/Conv2D:0",
      "has_batch_norm" : 0,
      "type" : "convolution",
      "n_groups" : 1,
      "pad_t" : 0,
      "has_biases" : 1,
      "C" : 384,
      "bottom" : "mixed_8\/join:0",
      "weights" : {

      },
      "pad_mode" : 1,
      "Nx" : 1,
      "pad_value" : 0,
      "Ny" : 1,
      "n_parallel" : 1
    },
    {
      "pad_r" : 0,
      "fused_relu" : 1,
      "fused_tanh" : 0,
      "pad_fill_mode" : 0,
      "pad_b" : 0,
      "pad_l" : 0,
      "top" : "mixed_9\/tower\/mixed\/conv_1:0",
      "blob_weights" : 331,
      "K" : 384,
      "blob_biases" : 329,
      "name" : "mixed_9\/tower\/mixed\/conv_1\/Conv2D:0",
      "has_batch_norm" : 0,
      "type" : "convolution",
      "n_groups" : 1,
      "pad_t" : 0,
      "has_biases" : 1,
      "C" : 384,
      "bottom" : "mixed_9\/tower\/conv:0",
      "weights" : {

      },
      "pad_mode" : 1,
      "Nx" : 1,
      "pad_value" : 0,
      "Ny" : 3,
      "n_parallel" : 1
    },
    {
      "pad_r" : 0,
      "fused_relu" : 1,
      "fused_tanh" : 0,
      "pad_fill_mode" : 0,
      "pad_b" : 0,
      "pad_l" : 0,
      "top" : "mixed_9\/tower\/mixed\/conv:0",
      "blob_weights" : 335,
      "K" : 384,
      "blob_biases" : 333,
      "name" : "mixed_9\/tower\/mixed\/conv\/Conv2D:0",
      "has_batch_norm" : 0,
      "type" : "convolution",
      "n_groups" : 1,
      "pad_t" : 0,
      "has_biases" : 1,
      "C" : 384,
      "bottom" : "mixed_9\/tower\/conv:0",
      "weights" : {

      },
      "pad_mode" : 1,
      "Nx" : 3,
      "pad_value" : 0,
      "Ny" : 1,
      "n_parallel" : 1
    },
    {
      "pad_r" : 0,
      "fused_relu" : 1,
      "fused_tanh" : 0,
      "pad_fill_mode" : 0,
      "pad_b" : 0,
      "pad_l" : 0,
      "top" : "mixed_9\/conv:0",
      "blob_weights" : 339,
      "K" : 1280,
      "blob_biases" : 337,
      "name" : "mixed_9\/conv\/Conv2D:0",
      "has_batch_norm" : 0,
      "type" : "convolution",
      "n_groups" : 1,
      "pad_t" : 0,
      "has_biases" : 1,
      "C" : 320,
      "bottom" : "mixed_8\/join:0",
      "weights" : {

      },
      "pad_mode" : 1,
      "Nx" : 1,
      "pad_value" : 0,
      "Ny" : 1,
      "n_parallel" : 1
    },
    {
      "weights" : {

      },
      "top" : "mixed_9\/join:0",
      "type" : "concat",
      "name" : "mixed_9\/join:0",
      "bottom" : "mixed_9\/conv:0,mixed_9\/tower\/mixed\/conv:0,mixed_9\/tower\/mixed\/conv_1:0,mixed_9\/tower_1\/mixed\/conv:0,mixed_9\/tower_1\/mixed\/conv_1:0,mixed_9\/tower_2\/conv:0"
    },
    {
      "pad_value" : 0,
      "average_count_exclude_padding" : 1,
      "top_shape_style" : 0,
      "avg_or_max" : 1,
      "stride_x" : 1,
      "pad_mode" : 1,
      "stride_y" : 1,
      "pad_t" : 0,
      "weights" : {

      },
      "size_y" : 3,
      "type" : "pool",
      "pad_r" : 0,
      "pad_b" : 0,
      "size_x" : 3,
      "pad_fill_mode" : 0,
      "bottom" : "mixed_9\/join:0",
      "pad_l" : 0,
      "name" : "mixed_10\/tower_2\/pool:0",
      "top" : "mixed_10\/tower_2\/pool:0"
    },
    {
      "pad_r" : 0,
      "fused_relu" : 1,
      "fused_tanh" : 0,
      "pad_fill_mode" : 0,
      "pad_b" : 0,
      "pad_l" : 0,
      "top" : "mixed_10\/tower_2\/conv:0",
      "blob_weights" : 343,
      "K" : 2048,
      "blob_biases" : 341,
      "name" : "mixed_10\/tower_2\/conv\/Conv2D:0",
      "has_batch_norm" : 0,
      "type" : "convolution",
      "n_groups" : 1,
      "pad_t" : 0,
      "has_biases" : 1,
      "C" : 192,
      "bottom" : "mixed_10\/tower_2\/pool:0",
      "weights" : {

      },
      "pad_mode" : 1,
      "Nx" : 1,
      "pad_value" : 0,
      "Ny" : 1,
      "n_parallel" : 1
    },
    {
      "pad_r" : 0,
      "fused_relu" : 1,
      "fused_tanh" : 0,
      "pad_fill_mode" : 0,
      "pad_b" : 0,
      "pad_l" : 0,
      "top" : "mixed_10\/tower_1\/conv:0",
      "blob_weights" : 347,
      "K" : 2048,
      "blob_biases" : 345,
      "name" : "mixed_10\/tower_1\/conv\/Conv2D:0",
      "has_batch_norm" : 0,
      "type" : "convolution",
      "n_groups" : 1,
      "pad_t" : 0,
      "has_biases" : 1,
      "C" : 448,
      "bottom" : "mixed_9\/join:0",
      "weights" : {

      },
      "pad_mode" : 1,
      "Nx" : 1,
      "pad_value" : 0,
      "Ny" : 1,
      "n_parallel" : 1
    },
    {
      "pad_r" : 0,
      "fused_relu" : 1,
      "fused_tanh" : 0,
      "pad_fill_mode" : 0,
      "pad_b" : 0,
      "pad_l" : 0,
      "top" : "mixed_10\/tower_1\/conv_1:0",
      "blob_weights" : 351,
      "K" : 448,
      "blob_biases" : 349,
      "name" : "mixed_10\/tower_1\/conv_1\/Conv2D:0",
      "has_batch_norm" : 0,
      "type" : "convolution",
      "n_groups" : 1,
      "pad_t" : 0,
      "has_biases" : 1,
      "C" : 384,
      "bottom" : "mixed_10\/tower_1\/conv:0",
      "weights" : {

      },
      "pad_mode" : 1,
      "Nx" : 3,
      "pad_value" : 0,
      "Ny" : 3,
      "n_parallel" : 1
    },
    {
      "pad_r" : 0,
      "fused_relu" : 1,
      "fused_tanh" : 0,
      "pad_fill_mode" : 0,
      "pad_b" : 0,
      "pad_l" : 0,
      "top" : "mixed_10\/tower_1\/mixed\/conv_1:0",
      "blob_weights" : 355,
      "K" : 384,
      "blob_biases" : 353,
      "name" : "mixed_10\/tower_1\/mixed\/conv_1\/Conv2D:0",
      "has_batch_norm" : 0,
      "type" : "convolution",
      "n_groups" : 1,
      "pad_t" : 0,
      "has_biases" : 1,
      "C" : 384,
      "bottom" : "mixed_10\/tower_1\/conv_1:0",
      "weights" : {

      },
      "pad_mode" : 1,
      "Nx" : 1,
      "pad_value" : 0,
      "Ny" : 3,
      "n_parallel" : 1
    },
    {
      "pad_r" : 0,
      "fused_relu" : 1,
      "fused_tanh" : 0,
      "pad_fill_mode" : 0,
      "pad_b" : 0,
      "pad_l" : 0,
      "top" : "mixed_10\/tower_1\/mixed\/conv:0",
      "blob_weights" : 359,
      "K" : 384,
      "blob_biases" : 357,
      "name" : "mixed_10\/tower_1\/mixed\/conv\/Conv2D:0",
      "has_batch_norm" : 0,
      "type" : "convolution",
      "n_groups" : 1,
      "pad_t" : 0,
      "has_biases" : 1,
      "C" : 384,
      "bottom" : "mixed_10\/tower_1\/conv_1:0",
      "weights" : {

      },
      "pad_mode" : 1,
      "Nx" : 3,
      "pad_value" : 0,
      "Ny" : 1,
      "n_parallel" : 1
    },
    {
      "pad_r" : 0,
      "fused_relu" : 1,
      "fused_tanh" : 0,
      "pad_fill_mode" : 0,
      "pad_b" : 0,
      "pad_l" : 0,
      "top" : "mixed_10\/tower\/conv:0",
      "blob_weights" : 363,
      "K" : 2048,
      "blob_biases" : 361,
      "name" : "mixed_10\/tower\/conv\/Conv2D:0",
      "has_batch_norm" : 0,
      "type" : "convolution",
      "n_groups" : 1,
      "pad_t" : 0,
      "has_biases" : 1,
      "C" : 384,
      "bottom" : "mixed_9\/join:0",
      "weights" : {

      },
      "pad_mode" : 1,
      "Nx" : 1,
      "pad_value" : 0,
      "Ny" : 1,
      "n_parallel" : 1
    },
    {
      "pad_r" : 0,
      "fused_relu" : 1,
      "fused_tanh" : 0,
      "pad_fill_mode" : 0,
      "pad_b" : 0,
      "pad_l" : 0,
      "top" : "mixed_10\/tower\/mixed\/conv_1:0",
      "blob_weights" : 367,
      "K" : 384,
      "blob_biases" : 365,
      "name" : "mixed_10\/tower\/mixed\/conv_1\/Conv2D:0",
      "has_batch_norm" : 0,
      "type" : "convolution",
      "n_groups" : 1,
      "pad_t" : 0,
      "has_biases" : 1,
      "C" : 384,
      "bottom" : "mixed_10\/tower\/conv:0",
      "weights" : {

      },
      "pad_mode" : 1,
      "Nx" : 1,
      "pad_value" : 0,
      "Ny" : 3,
      "n_parallel" : 1
    },
    {
      "pad_r" : 0,
      "fused_relu" : 1,
      "fused_tanh" : 0,
      "pad_fill_mode" : 0,
      "pad_b" : 0,
      "pad_l" : 0,
      "top" : "mixed_10\/tower\/mixed\/conv:0",
      "blob_weights" : 371,
      "K" : 384,
      "blob_biases" : 369,
      "name" : "mixed_10\/tower\/mixed\/conv\/Conv2D:0",
      "has_batch_norm" : 0,
      "type" : "convolution",
      "n_groups" : 1,
      "pad_t" : 0,
      "has_biases" : 1,
      "C" : 384,
      "bottom" : "mixed_10\/tower\/conv:0",
      "weights" : {

      },
      "pad_mode" : 1,
      "Nx" : 3,
      "pad_value" : 0,
      "Ny" : 1,
      "n_parallel" : 1
    },
    {
      "pad_r" : 0,
      "fused_relu" : 1,
      "fused_tanh" : 0,
      "pad_fill_mode" : 0,
      "pad_b" : 0,
      "pad_l" : 0,
      "top" : "mixed_10\/conv:0",
      "blob_weights" : 375,
      "K" : 2048,
      "blob_biases" : 373,
      "name" : "mixed_10\/conv\/Conv2D:0",
      "has_batch_norm" : 0,
      "type" : "convolution",
      "n_groups" : 1,
      "pad_t" : 0,
      "has_biases" : 1,
      "C" : 320,
      "bottom" : "mixed_9\/join:0",
      "weights" : {

      },
      "pad_mode" : 1,
      "Nx" : 1,
      "pad_value" : 0,
      "Ny" : 1,
      "n_parallel" : 1
    },
    {
      "weights" : {

      },
      "top" : "mixed_10\/join:0",
      "type" : "concat",
      "name" : "mixed_10\/join:0",
      "bottom" : "mixed_10\/conv:0,mixed_10\/tower\/mixed\/conv:0,mixed_10\/tower\/mixed\/conv_1:0,mixed_10\/tower_1\/mixed\/conv:0,mixed_10\/tower_1\/mixed\/conv_1:0,mixed_10\/tower_2\/conv:0"
    },
    {
      "pad_value" : 0,
      "average_count_exclude_padding" : 1,
      "top_shape_style" : 0,
      "avg_or_max" : 0,
      "stride_x" : 1,
      "pad_mode" : 2,
      "stride_y" : 1,
      "pad_t" : 0,
      "weights" : {

      },
      "size_y" : 8,
      "type" : "pool",
      "pad_r" : 0,
      "pad_b" : 0,
      "size_x" : 8,
      "pad_fill_mode" : 0,
      "bottom" : "mixed_10\/join:0",
      "pad_l" : 0,
      "name" : "pool_3:0",
      "top" : "pool_3:0"
    },
    {
      "nB" : 2048,
      "top" : "final_training_ops\/Wx_plus_b\/add:0",
      "has_biases" : 1,
      "weights" : {

      },
      "nC" : 353,
      "blob_weights" : 379,
      "type" : "inner_product",
      "has_relu" : 0,
      "bottom" : "pool_3:0",
      "blob_biases" : 377,
      "has_tanh" : 0,
      "name" : "final_training_ops\/Wx_plus_b\/MatMul",
      "has_prelu" : 0
    },
    {
      "C" : 2,
      "weights" : {

      },
      "top" : "final_result__0",
      "type" : "softmax",
      "name" : "final_result:0",
      "bottom" : "final_training_ops\/Wx_plus_b\/add:0"
    }
  ]
}